data.pth (torch, 47082 bytes, 6 tensors)

l1.weight f4 [8, 700]
00000000: 5d14 9c3d 64c5 d33e b296 803e a69c adbe
00000010: 2c42 153f aa1d 9f3e 2f3b 10bf c42f 3b3e
00000020: e767 c3be b263 e33d 0d1a 113f dec6 163f
00000030: dfcf 833c abf3 973e 989e 593f ec58 bd3e
00000040: 8d13 603e 6695 df3e 91b9 803f 29a0 403f
00000050: 35c6 83be 78bc 44bf b804 593e 30eb 3ebd
00000060: 5bdb 813e c341 643e b914 5b3f 6a32 20bf
00000070: be11 813f 730d dcbe 018c 013f df2a c0bd
00000080: 6167 11bf f2d9 1abf 0d41 41bf 2abc 20be
00000090: a1b0 24be 392c aebe ae10 25bf 648c 853f
000000a0: 455f ebbd 5406 0d3e 2eaf d43d 4781 bfbe
000000b0: ae26 97bf 9b86 72be dd8f c3be c029 83bf
000000c0: 4e11 543f e009 81bd 2f24 bdbe ae4e b5bd
000000d0: af0b 50bd 5daf 2ebe 3855 133e d13d 65be
000000e0: e5a6 9abd 21f6 073e 5b0f f13e 34ed 1bbf
000000f0: b71f bebe 3967 43bd 793d 913e 275c 8a3e
00000100: 4735 72be 78fc 58be 5e22 f2be 9f56 f63d
00000110: 9651 f03e 4782 df3e e933 f13b c7c7 22bf
00000120: 87bd 5abe 72e7 6bbe e40e f1be 6868 133f
00000130: d549 073f 139e a03e f709 2fbe 1797 cd3e
00000140: cc10 2ebe 9222 f43e 94ad 87be 86e2 dc3e
00000150: ba94 1c3e bad5 783e fb70 03bf e8ed 1c3f
00000160: 58b0 c4bd cb95 a33e ee46 403e 602d 12bf
00000170: b831 63be 02bd 393e f312 4abe af6b b33e
00000180: 5c72 ea3e cb47 db3d 7125 963c 0d43 3e3f
00000190: 5029 043f fdec b83e c7b7 15bf 10ae 9f3e
000001a0: 229f 84bd ac06 ab3e 6d95 673f b21d 2abf
000001b0: 466f 01be 27c7 003f 27d9 933e b1b3 c4be
000001c0: f3be 90bd 610b d13e 97fc 7b3e f1b6 a33e
000001d0: 18a3 f73e 3a56 59be cff3 473e 7ae1 c03c
000001e0: bc83 7b3e 15e9 553f 190f dc3e cc48 febe
000001f0: 893f 88bd ebdc 15bd 9d21 a5be 2d84 b03e
00000200: 9a00 223f 9ad7 a0bd c05f 183f f7dc 5fbe
00000210: 0b59 3e3e 6ee5 fc3e 6f60 573f eaf0 bebd
00000220: 3428 dc3e 8074 7a3e f325 5cbb 046f 293e
00000230: 01e0 603e cc41 6abe faa7 6cba 7045 013f
00000240: 5f5d 00bf c6e6 923c a0c5 363e b39b 95be
00000250: a816 d6be de09 febe fe98 b6be 8c24 ddbe
00000260: b189 14bf 9bf5 613e ae13 00bf 87ba e93e
00000270: bcb8 27be b624 2ebf f895 edbd 98c3 ef3e
00000280: da98 85bf 1ed2 e43e 4b3d 573f 2a6e f03e
00000290: 797b e23b 08aa efbd 6764 6b3e 6813 f7be
000002a0: 5a21 bbbe f0a1 6bbe 2210 da3c 0bfe 993e
000002b0: a327 0d3f fc1c 103f d309 bb3d 056c 5b3d
000002c0: 6873 4cbc f974 703e d0ab 9a3e a79b 813f
000002d0: f394 963e 2fb7 533f 287c 86be d410 11bf
000002e0: f0d3 9cbe 0307 eb3e 71a4 b9bb f182 36bd
000002f0: a7b7 ddbd 006b bcbd ee6c 993e b9e6 abbe
00000300: 2dae 87be fedd 853c 8ca2 a63e f45c cb3d
00000310: c0fb ff3d cb49 29bf 0efc 44bf 91b7 98bb
00000320: bbae ba3e d42b 8c3d c4f4 1abf 9373 3cbe
00000330: 2ef5 5d3c 0157 f93e 5a9f 4c3f 5184 c23e
00000340: 418c 02bf be8f f83e 3fdd 013f 8590 1a3f
00000350: ba63 c63e 5d99 243f 2d41 1dbc 7b00 2c3d
00000360: 9eff 3dbe 2891 473f 64ba 1ebe bfe8 46be
00000370: 100b b0be a610 973e ea5b 333e fa0e 82be
00000380: 4ddd 823e 8804 083f bfbb 84be 46c4 57be
00000390: 73a1 a0be e656 323e d3c6 a23e a2de c1bd
000003a0: 193a 9cbe 95ef 9abe d37a 983d d02a adbd
000003b0: c94a a4be 699b c6be a8a0 863f 8bd4 4abf
000003c0: 5f0d f73e f861 a6be 7431 273c abe9 a23e
000003d0: c438 3c3e 45d3 503e f001 e23e 6671 b73e
000003e0: 0044 d43d b9bd 2abe 8d42 8fbe 9b36 babe
000003f0: 89e5 733f b5ca 7a3f dc66 fcbd e613 11be
0.076210715 0.41361535 0.2511497 -0.33908576 0.58304095 0.3107732 -0.56340307 0.1827994
-0.3816521 0.11103 0.56680375 0.588972 0.016090332 0.2967809 0.8500762 0.36981905
0.21882458 0.4366867 1.005663 0.75244385 -0.25737157 -0.7685008 0.21193206 -0.04661101
0.25362667 0.22290711 0.85578495 -0.62576926 1.008354 -0.4297901 0.50604254 -0.09383177
-0.5679837 -0.6048881 -0.75489885 -0.15696779 -0.16083004 -0.34018114 -0.64478576 1.0433469
-0.114927806 0.13771945 0.103849754 -0.37403318 -1.1808679 -0.2368416 -0.38195696 -1.0247116
0.82838905 -0.06300712 -0.36941668 -0.088528976 -0.050792392 -0.17059083 0.14387977 -0.22386862
-0.07551364 0.13277484 0.47082028 -0.6090882 -0.37133572 -0.047705863 0.28367212 0.27023432
-0.23653136 -0.21190059 -0.47291845 0.120282404 0.46937245 0.4365408 0.0073609245 -0.63586086
-0.21361361 -0.23037508 -0.47081673 0.57581186 0.52847034 0.313706 -0.17093645 0.40154335
-0.16998595 0.47682625 -0.26499617 0.43141574 0.1529111 0.2430028 -0.5134427 0.61300516
-0.096039474 0.3195022 0.18777058 -0.57100487 -0.22186935 0.18138507 -0.19733791 0.35043094
0.45790374 0.10707053 0.0183284 0.7432106 0.5162554 0.36118308 -0.58483547 0.31187487
-0.06475665 0.33403528 0.9046238 -0.6645156 -0.12640104 0.5030388 0.28876612 -0.38418344
-0.07067671 0.40828994 0.24608074 0.3197551 0.48366618 -0.21224299 0.195266 0.023545016
0.24561971 0.8355878 0.4298027 -0.49664915 -0.06652743 -0.036587637 -0.32252207 0.34475842
0.6328217 -0.07853623 0.595211 -0.21861635 0.18588655 0.4939379 0.8413152 -0.093232945
0.42999423 0.24458504 -0.0033591955 0.16546255 0.2196045 -0.22876662 -0.0009027716 0.5049658
-0.50142473 0.017932307 0.17848825 -0.29220352 -0.4181416 -0.49616903 -0.356636 -0.43191946
-0.580226 0.22066347 -0.5003003 0.45650122 -0.16379064 -0.68024766 -0.1160087 0.46828914
-1.0437272 0.44691557 0.840779 0.46959049 0.0069116917 -0.11702353 0.22987519 -0.48256993
-0.36548883 -0.23010993 0.02661902 0.30076632 0.55138606 0.56294227 0.09132733 0.053569812
-0.012478687 0.23482122 0.30209208 1.0125626 0.29410514 0.8270139 -0.262666 -0.566663
-0.30630445 0.45903787 -0.005665355 -0.04455847 -0.108260445 -0.09200096 0.2996592 -0.33574465
-0.26500073 0.016341206 0.32545888 0.09929839 0.124991894 -0.66128224 -0.76947105 -0.0046605547
0.36461434 0.06844297 -0.6052973 -0.18403463 0.013547225 0.4869919 0.7993065 0.37991574
-0.5099526 0.48547167 0.5072822 0.6037677 0.3874796 0.64296514 -0.009598059 0.041992646
-0.18554541 0.77955866 -0.1550079 -0.19424723 -0.3438344 0.2950489 0.17515531 -0.2540205
0.25559464 0.53131914 -0.2592449 -0.21070966 -0.31373176 0.17415962 0.31792316 -0.09466292
-0.30513075 -0.30260912 0.07445302 -0.084554315 -0.32088307 -0.38790444 1.0517778 -0.79230565
0.4825239 -0.3249662 0.010204662 0.318189 0.1838103 0.20393093 0.44142103 0.35828704
0.103645325 -0.16673936 -0.27980462 -0.36369786 0.9527212 0.97965556 -0.12324306 -0.14167747

l1.bias f4 [8]
00000000: 8467 2b3f 51bb 163f 4046 aa3f 9630 e43f
00000010: 1f33 aa3f f2e1 803f e784 8d3f 59c4 8e3f
0.6695483 0.5887957 1.3302689 1.7827327 1.3296851 1.0068953 1.1056184 1.115367

l2.weight f4 [8, 8]
00000000: c166 babf 9e5f 19c0 0d6e 5d40 d692 6340
00000010: c4b5 3fbf 67a1 1340 9f26 923e 60d3 843f
00000020: 686d 85bf 2fff 8d3f c40f 083e cb89 2b3e
00000030: a2ac a53f 99f9 4540 6195 91be 59f5 cbbf
00000040: 2e0c d13f bc84 a13e d34c 0a3f 5315 ac3f
00000050: 15c8 343f bd62 6e3d b075 31c0 0af4 903f
00000060: 7872 fbbd d20b f5bd 4d62 7abe a481 aabd
00000070: 937d 97be a4a8 dc3d 28bf a83d 4c12 22be
00000080: fdb5 0a40 ec8c 2740 fd3a d33f 2983 733f
00000090: 864b 95be 56bd 32be 3a70 6b40 4f11 04c0
000000a0: d4bd ea3f e48c 2840 76bb fcbf febf ca3f
000000b0: 2fb0 653f 919d 9abe 0b19 a7be d363 3cbf
000000c0: d986 5240 b8fc 35be 0250 0540 bd9c bbbf
000000d0: 7afe 0c40 42ef fa3f 1543 cabf 01b0 18bf
000000e0: f591 a5bf deb0 2fbe 8a4f 14bf 1742 ac3f
000000f0: 2299 4a40 d976 a5bf 9359 6ebd 8765 2b40
-1.4562608 -2.396461 3.459842 3.5558372 -0.7488673 2.3067262 0.2854509 1.0377007
-1.0424013 1.1093501 0.13287264 0.16751783 1.2943308 3.0933592 -0.2843428 -1.5934249
1.6331842 0.3154658 0.54023474 1.3444008 0.706178 0.058199633 -2.772808 1.1324475
-0.122776926 -0.11965145 -0.24451561 -0.08325508 -0.29587993 0.10774353 0.08239585 -0.15827292
2.1673577 2.6179762 1.6502377 0.9512201 -0.29159182 -0.17455038 3.6787248 -2.0635564
1.8339181 2.6335993 -1.9744709 1.5839841 0.8972196 -0.3019834 -0.32636294 -0.7358982
3.2894804 -0.17772186 2.0830083 -1.4657208 2.203032 1.9604266 -1.5801722 -0.5964356
-1.2935168 -0.17157313 -0.57933867 1.3457669 3.1655965 -1.2926894 -0.058190893 2.6780717

l2.bias f4 [8]
00000000: 4bc4 843f 0a2b 5cbe 491d d9bd cab2 6bbe
00000010: ff1f cc3e 6153 cf3d b249 f33e 77a1 933f
1.0372404 -0.21500793 -0.10601289 -0.23017421 0.3986816 0.10123325 0.47517163 1.153365

l3.weight f4 [102, 8]
00000000: 5cb9 8b3e be65 03bf 0173 e4bc ba19 8ebe
00000010: 5730 34c0 df71 92be ba19 d8bf 1e05 a93e
00000020: cf43 713e e443 1e3e 81ba ffbf 126f 733e
00000030: e4e2 fe3e f660 46be 8296 f1bf 6d62 ffbf
00000040: 8c24 dfbd 7777 2abe 12b2 68bd c072 2fbc
00000050: 0e77 e1bd e036 4d3e ab54 2abe 76f2 debf
00000060: a87f a0bf e819 df3e c0a1 adbe 2c13 87bd
00000070: 49d4 d2be 6b0e fabe 1149 c43e ae2e f4bd
00000080: 872d a2bf c5e6 233f 3c0e 20bf 60a9 a4be
00000090: a1c9 7dbd 9425 6b3e 061c da3e 859b fcbf
000000a0: 80ea fbbe c84e 33c0 bba5 e7bd e065 ccbc
000000b0: e40c b8bd 3282 f2be 3060 083f a8fa 9bbe
000000c0: dee0 e7bf 7c4d c9bf 1a48 23c0 d504 84be
000000d0: d260 9c3e 1bae 833e 74d3 b3bf 2332 1a3f
000000e0: 6f90 4e3e 5ec7 87be 768b 093e 502f aa3c
000000f0: ab49 c1be 3ddc 86bf 77f6 ef3e 6322 0ac0
00000100: 70ef ea3e 241b 913e 0441 50c0 8eb0 5c3e
00000110: 9806 bb3e f3ec e8bf 3c95 f7be f60d cbbf
00000120: d1e9 7cbe e967 41c0 30c3 96bf a20a 69be
00000130: a7a9 e3be 6c7a c4be 5798 eebf 2ebc 6d3f
00000140: 771c 6bbe 229b 8fbf d7ab 70c0 5ba9 99be
00000150: 872f 1d3f 0aba 03c0 e164 1ebe 6a45 f93e
00000160: 3666 f13d 0ac6 d03e f289 15bf d062 4fbe
00000170: 75ba 98be 2d18 4cc0 3a66 923e cc14 1bbf
00000180: cc81 16bf 1578 aabd 2c8b 153d 7271 3f3e
00000190: dc8a 70bc 776d dbbe 5360 273e 4653 27bf
000001a0: 7ee8 c23e 6cfd 27bf 96b2 49c0 147f 90bd
000001b0: 6ea4 0d3f 5216 8cbf 0c45 d2bf 35f2 c3be
000001c0: 2302 a4bd dad2 35c0 e146 23bf 4e78 6abe
000001d0: 6192 7a3e e64d b3bf ae35 5c3d 010d 5c3e
000001e0: a70d a83e 06e2 febe 0321 0dc0 00b6 3c3a
000001f0: 9c6a 023f b60f 00bf 6665 afbb 7602 3ec0
00000200: ccf6 e5be f205 033f fa18 cfbf 2781 853e
00000210: dfc1 c3bc 5971 97bf 825f f83e 4dc1 9cbe
00000220: 20c9 25bf 8511 8f3e 4eee 27be f925 b2be
00000230: 01ec e2bf 62af 19bf 35e2 8c3e 57fa 273e
00000240: b435 c33d 0f2f 0d3d ee01 e0be c0b1 c7bd
00000250: 9b9f f33d 6a31 12bf 6bc6 a73e 5dc8 60c0
00000260: 8f6a 973a c799 d23e 2bcb 0bc0 688e aabe
00000270: 3f12 b5bc 77b7 723c 382a 36bf 83a9 ecbe
00000280: 6ce8 8abe 28b1 c3bf 4a33 18bd 1b70 99be
00000290: 1f06 34c0 1ca9 a7bd 7187 8a3e f557 be3e
000002a0: 44bd 123e dc68 ddbf 6eef 1abf 5841 b5bd
000002b0: b133 b83e 218f 87be 401b 31c0 65d5 23be
000002c0: ef00 afbe 3b0e 2fbf 4dea 42bf eb6e aabe
000002d0: 3fdd a83e acfa 82bf 51f8 083f 0c1a 1dbf
000002e0: 2f28 093e 15f2 73c0 cb3f 14be 99f5 a03e
000002f0: b8de 1fbf 7695 42bf 01c6 ccbe 7647 f03e
00000300: 65f4 603e 9cef 1bc0 3637 a73e f2e9 6c3e
00000310: 91f4 33c0 8072 d4be 71c4 0ec0 0491 183f
00000320: 8067 ce3e 876a 25bf df0a 17c0 e6a0 53be
00000330: 0589 f03d d127 5abf f8b6 883e d3c8 c7be
00000340: 7d66 07c0 027b 2b3d 3e82 53be f0f7 b23d
00000350: b4df 48bd 6b59 b53e 2726 333e 678e 25bf
00000360: c6de 363e 6076 22c0 573b 48c0 a014 abbe
00000370: 3716 023f 1a24 c83d 58b4 a9bf d2d7 52be
00000380: 3143 62be 0f50 493e c20d 74bf 39fe 10be
00000390: a233 b93e d0ae 06bf 0faa d83c 1969 8cbf
000003a0: 9b3e dcbe dc7e f5bf bed2 a1be 9499 fb3d
000003b0: 10ae 5fbd afc5 a7be feda 16bf 9644 e03e
000003c0: 7592 9d3d 7ef5 27bf 8afd 2cbf 8cea 64be
000003d0: aad9 b23d 2f5b 74bf a98c 56bf a595 273e
000003e0: 6041 12be 072b 19c0 12a4 083e 80f3 ce3b
000003f0: 55a1 c2bf 063f 893d f50d fabe d578 c13e
0.27289855 -0.5132712 -0.02788687 -0.27754003 -2.8154504 -0.28602502 -1.6882851 0.33011717
0.23561023 0.15455586 -1.9978791 0.23772839 0.4978248 -0.19372925 -1.8874056 -1.9951912
-0.10895643 -0.16647135 -0.056810446 -0.010708511 -0.11009036 0.20040464 -0.16633861 -1.7417743
-1.2538958 0.43574452 -0.33912468 -0.065954536 -0.41177586 -0.48839125 0.38336995 -0.11922966
-1.2670144 0.64024 -0.6252172 -0.32160473 -0.061959866 0.22963554 0.42599505 -1.9734961
-0.49202347 -2.8016834 -0.113109075 -0.024950922 -0.08986834 -0.47364956 0.5327177 -0.30464673
-1.8115499 -1.5726771 -2.5512757 -0.25784937 0.30542618 0.2571877 -1.4048905 0.6023275
0.20172285 -0.26519293 0.13432106 0.020774513 -0.37751517 -1.0535961 0.46867725 -2.1583488
0.458858 0.2834102 -3.2539682 0.21551725 0.36528468 -1.8197311 -0.48356044 -1.5863636
-0.24698569 -3.0219672 -1.1778316 -0.22757962 -0.44465372 -0.3837465 -1.864024 0.92865264
-0.22960077 -1.1219218 -3.7604883 -0.3001202 0.61400646 -2.05823 -0.1546817 0.4868577
0.11787073 0.40776092 -0.5841361 -0.20252538 -0.29829755 -3.1889756 0.28593618 -0.6057861
-0.58791804 -0.08323685 0.036509678 0.1869562 -0.014681544 -0.42856953 0.16345339 -0.6536144
0.38068002 -0.65621066 -3.151525 -0.07055488 0.55329025 -1.0944312 -1.6427321 -0.38270727
-0.0800822 -2.8409944 -0.6378003 -0.22897455 0.24469902 -1.4008148 0.05376213 0.21489336
0.32822916 -0.49781817 -2.2051399 0.0007198751 0.50943923 -0.50023973 -0.005352664 -2.9689002
-0.44914854 0.51180947 -1.6179497 0.26075098 -0.023896156 -1.1831466 0.48510367 -0.30616227
-0.6476002 0.27943054 -0.163995 -0.34794596 -1.7728273 -0.6003324 0.27516332 0.16404091
0.095317274 0.034468707 -0.43751472 -0.097507 0.11895677 -0.5710665 0.32768568 -3.5122292
0.0011552143 0.41132948 -2.1842754 -0.33311772 -0.022103427 0.014814249 -0.7115817 -0.46223077
-0.2713045 -1.5288439 -0.037158288 -0.29968342 -2.8128736 -0.08186552 0.2705646 0.3717648
0.14330012 -1.7297626 -0.6052159 -0.08850354 0.35976937 -0.26476386 -2.7672882 -0.15999372
-0.341804 -0.6838109 -0.76138765 -0.3328775 0.32981297 -1.0232749 0.535039 -0.6136787
0.13394235 -3.8116505 -0.1447746 0.31437376 -0.62449217 -0.7600931 -0.39994815 0.4692952
0.21968229 -2.4364996 0.3265931 0.23136118 -2.8118021 -0.41493607 -2.2307398 0.59596276
0.4031334 -0.6461567 -2.3600385 -0.20666847 0.117448844 -0.85217005 0.26702094 -0.39020404
-2.1156304 0.041865356 -0.20655152 0.087386966 -0.049041465 0.35419783 0.17495023 -0.64670414
0.17858419 -2.538475 -3.1286218 -0.33414173 0.5081515 0.09772511 -1.3258162 -0.20590141
-0.22095944 0.19659446 -0.9533349 -0.14159478 0.36172205 -0.5261049 0.026448278 -1.0969573
-0.43016514 -1.917934 -0.31606096 0.12285152 -0.05460936 -0.32768008 -0.58927906 0.43802327
0.0769395 -0.65608966 -0.6757437 -0.22355098 0.087329224 -0.95451635 -0.8380838 0.16365679
-0.14282751 -2.3932512 0.13343838 0.0063156486 -1.5205485 0.06701474 -0.48838773 0.377875

l3.bias f4 [102]
00000000: faec 69be c340 b23e 468b 9cbe 5d7b 96be
00000010: ae66 0b3d d0b2 d13e 6f01 473f 0fed 923d
00000020: 9794 6bbe f63f d03e 097b 3a3f 426c 76be
00000030: 793d 4438 2301 64be e865 c7be c635 5fbe
00000040: 9aef 56be c1ec cd3d 3a53 babe d38e b4bd
00000050: 9403 6abe 9ebb b63d 97d2 0e3e d20c 023e
00000060: 3dde 0d3f 6d83 72bd 0d02 b5be f93e 83be
00000070: 8f5f 4e3e 7118 c0be deb2 4fbe b13d 4dbe
00000080: 8a26 ecbe 27ba 553c 33f0 e5be 5922 b73e
00000090: 4c36 88be d4df bf3d 89ac 9cbd 376c ebbe
000000a0: 9ae5 bcbe ad4e d03d 9f6f 79be 878c 0dbf
000000b0: a856 dbbe 0a37 1abe 6e32 323f 5c26 3c3e
000000c0: 7494 03be acd1 12be 93da d43d 7dcd d33e
000000d0: 7b6e b53e 40d5 47bf 55d7 7f3e 93ac 65be
000000e0: dcc3 a7be b085 a93e 7956 45be d26b 37be
000000f0: 6aed 15bd 6f68 8c3e 67fb b0bd ff47 c63c
00000100: d19c 583e e558 d23e d445 ba3a fce9 20bf
00000110: 267d 0fbf 7efe e93e a69a cfbd cfa2 883e
00000120: 46e0 15be 73e6 a63e c134 99be 9cfa c4be
00000130: f3d7 873e b9c6 473d 12ba b9be 2e8f 2abe
00000140: 3d0d 003f 42dc c6bd 288f 8cbe 5341 8b3d
00000150: 6bb2 45bc d958 013f 4160 27be 600f ee3e
00000160: ba89 f7be cf58 f83e e8ec 103f 3fba 85be
00000170: 5bb5 e93e f158 3ebf dd29 463e 23db 3bbe
00000180: 6424 a73e 1421 a83e e61a 17be e917 8cbe
00000190: 132d b43e 760a 133f
-0.22844306 0.34815034 -0.30575007 -0.29390994 0.03403347 0.40956736 0.7773656 0.071741216
-0.23005901 0.40673798 0.72843987 -0.24064735 4.6787292e-05 -0.22266059 -0.38944936 -0.21797857
-0.20989838 0.10054923 -0.36391622 -0.08816304 -0.22852927 0.08922504 0.13947521 0.12700203
0.55417234 -0.05920737 -0.35353127 -0.25633982 0.2015364 -0.37518647 -0.20283076 -0.20043065
-0.46123153 0.01304487 -0.4490982 0.35768393 -0.26603925 0.09368864 -0.07650096 -0.45981
-0.36893922 0.10171256 -0.24358986 -0.5529255 -0.4283955 -0.15060058 0.696082 0.18374008
-0.12849599 -0.14337796 0.10393252 0.41367713 0.35435852 -0.7805977 0.24984486 -0.22429113
-0.32766616 0.33109808 -0.19271268 -0.17912224 -0.03660337 0.27423427 -0.08641701 0.024204252
0.2115357 0.41083446 0.0014211484 -0.6285703 -0.56050336 0.45701975 -0.10136919 0.26686713
-0.14636335 0.32597694 -0.2992306 -0.3847245 0.26531944 0.0487735 -0.36274773 -0.16656181
0.500202 -0.097099796 -0.2745297 0.06799569 -0.012066464 0.50526196 -0.16345312 0.46496105
-0.48347265 0.48505256 0.5661149 -0.26118657 0.45646176 -0.74354464 0.19351907 -0.18345313
0.3264495 0.32837737 -0.14756355 -0.27361992 0.3519064 0.5743784
